…
The sparsity of the dataset: 93.70575143257098%
Remain Fields: ['user_id', 'item_id', 'timestamp', 'age', 'gender', 'occupation', 'release_year', 'class', 'label']
Sun 23 Apr 2023 13:21:34 INFO  [Training]: train_batch_size = [2048] train_neg_sample_args: [{'distribution': 'none', 'sample_num': 'none', 'alpha': 'none', 'dynamic': False, 'candidate_num': 0}]
Sun 23 Apr 2023 13:21:34 INFO  [Evaluation]: eval_batch_size = [4096] eval_args: [{'split': {'RS': [0.8, 0.1, 0.1]}, 'order': 'RO', 'group_by': None, 'mode': 'labeled'}]
Sun 23 Apr 2023 13:21:34 INFO  DSSM(
  (token_embedding_table): FMEmbedding(
    (embedding): Embedding(2788, 10)
  )
  (token_seq_embedding_table): ModuleList(
    (0): Embedding(20, 10)
  )
  (first_order_linear): FMFirstOrderLinear(
    (token_embedding_table): FMEmbedding(
      (embedding): Embedding(2788, 1)
    )
    (token_seq_embedding_table): ModuleList(
      (0): Embedding(20, 1)
    )
  )
  (user_mlp_layers): MLPLayers(
    (mlp_layers): Sequential(
      (0): Dropout(p=0.3, inplace=False)
      (1): Linear(in_features=40, out_features=256, bias=True)
      (2): BatchNorm1d(256, eps=1e-05, momentum=0.1, affine=True, track_running_stats=True)
      (3): Tanh()
      (4): Dropout(p=0.3, inplace=False)
      (5): Linear(in_features=256, out_features=256, bias=True)
      (6): BatchNorm1d(256, eps=1e-05, momentum=0.1, affine=True, track_running_stats=True)
      (7): Tanh()
      (8): Dropout(p=0.3, inplace=False)
      (9): Linear(in_features=256, out_features=256, bias=True)
      (10): BatchNorm1d(256, eps=1e-05, momentum=0.1, affine=True, track_running_stats=True)
      (11): Tanh()
    )
  )
  (item_mlp_layers): MLPLayers(
    (mlp_layers): Sequential(
      (0): Dropout(p=0.3, inplace=False)
      (1): Linear(in_features=30, out_features=256, bias=True)
      (2): BatchNorm1d(256, eps=1e-05, momentum=0.1, affine=True, track_running_stats=True)
      (3): Tanh()
      (4): Dropout(p=0.3, inplace=False)
      (5): Linear(in_features=256, out_features=256, bias=True)
      (6): BatchNorm1d(256, eps=1e-05, momentum=0.1, affine=True, track_running_stats=True)
      (7): Tanh()
      (8): Dropout(p=0.3, inplace=False)
      (9): Linear(in_features=256, out_features=256, bias=True)
      (10): BatchNorm1d(256, eps=1e-05, momentum=0.1, affine=True, track_running_stats=True)
      (11): Tanh()
    )
  )
  (loss): BCEWithLogitsLoss()
  (sigmoid): Sigmoid()
)
Trainable parameters: 315561
Sun 23 Apr 2023 13:21:34 INFO  FLOPs: 286328.0
Sun 23 Apr 2023 13:21:40 INFO  epoch 0 training [time: 5.50s, train loss: 27.7533]
Sun 23 Apr 2023 13:21:40 INFO  epoch 0 evaluating [time: 0.17s, valid_score: 0.553700]
Sun 23 Apr 2023 13:21:40 INFO  valid result: 
…
